pre_training/LunarLander-v2_weights.pth (torch, 22303 bytes, 6 tensors)

fc1.weight f4 [64, 8]
-1.8811831 -0.31419072 -0.8495086 -0.95143944 0.43264344 -0.002301769 0.025802718 0.050379954
0.48158365 0.24885057 -0.015319646 0.02923809 1.2090596 -0.4977044 0.40257323 0.6563465
-0.019299394 -2.0222902 0.9095879 2.7383842 -2.0164504 -0.5549349 0.5082148 0.3381629
1.2283381 -5.0105004 0.3369657 -0.683865 -0.43195203 -0.8324463 0.08786876 1.3656996
1.0882994 0.16847174 -0.47837976 -0.23962796 -0.5051851 0.6191298 -0.7833653 0.28899443
0.6041169 2.689663 0.21477047 -0.55140746 -0.24188334 -0.38420182 -1.0375922 -0.25133425
0.50049293 -0.10214393 -0.03764327 -0.036870662 3.4525795 -0.0397037 -0.23961678 0.23200013
-0.072205976 -0.36649513 0.3177313 -1.0427011 -0.9711884 -0.039264906 0.21998191 0.6421303
-0.045187347 0.7928244 0.9342709 1.5548891 -0.2657628 -0.36778542 -0.18391745 0.13355953
0.96038705 -1.5277535 0.23305383 -1.0869718 0.5138789 -0.7065133 1.2134627 0.013458202
-1.460568 0.2116466 -1.0081112 0.8503288 0.22608043 -0.0047552614 0.46202356 0.30861366
-0.6960941 -0.8426337 0.73322314 -1.332704 0.14110526 -0.02356451 0.9180676 0.11740146
-2.314999 -1.0778849 0.60218525 -1.2178712 2.4988465 1.021941 0.5336257 -0.15391864
-1.285875 0.2143796 -0.81403804 -0.47289973 0.6383025 -0.71064246 1.0440198 0.34229362
1.3529414 -0.13405028 -0.33904874 -0.11240119 0.2254656 -0.92992395 1.2882944 -0.22884065
-1.5309827 0.002903684 0.52969515 -1.0964332 -2.2452402 -0.32463428 0.41945654 0.15956827
-0.45947856 0.017063025 1.0675677 -1.7482193 0.43450314 1.4604363 -0.6138088 0.605062
-2.7625499 0.32103345 -1.0441912 0.48145825 0.2937335 -0.08630204 -0.03348901 1.1063036
-1.3816495 -1.0401261 0.25705254 -0.54322225 0.033272363 -0.35907224 -0.7811733 1.0590395
-0.15307376 -1.1360238 -0.61578417 -0.7006094 -0.5283771 -1.6074977 -0.77932316 0.20336735
1.2979864 -0.119611055 -0.73561215 -1.6989714 -0.63981986 0.114007466 0.30532768 0.2862502
1.2647134 0.27072737 -1.6284405 -1.312879 0.33109015 -1.3594213 -0.33063203 0.45576832
-0.14975002 0.0121966805 0.075925365 -0.028817665 -2.8927846 -0.009574639 -0.55790895 -0.19703351
-0.6800694 0.6632245 0.21426463 -1.4784198 -1.6563511 -0.974813 0.4525818 -0.6915358
1.2195241 -0.013169644 -1.9726768 -1.3003812 -1.6434505 0.6355392 0.16510218 0.74111867
-0.41640136 -0.9690909 -0.3904545 -1.565148 1.0763772 -0.06057231 -0.026436258 -0.04799335
-2.2827916 0.035732098 0.44101322 -2.0496964 0.3419117 0.011366998 -1.074951 0.14541309
0.9522607 -0.6043744 -1.5279393 1.2139683 1.7889271 -0.32115608 -1.1893644 0.021589115
3.3581448 0.1958064 1.5065911 -0.4459494 0.07993894 0.64703333 -0.21213348 -0.21096253
-0.35139307 0.03566579 -0.60182077 -1.646927 0.84896123 -0.099223636 -0.6751307 0.046122678
-0.11502476 -0.11559359 0.50295734 -0.009240481 -0.37719002 1.5105972 0.44477385 -1.0936917
-0.5711306 -0.36766934 -0.47540236 -0.71191245 -0.39452526 -2.0716627 -0.29440373 -0.22160764
00000000: 9cca f0bf 9bdd a0be 6579 59bf 8991 73bf
00000010: 7183 dd3e 47d9 16bb 3960 d33c 365b 4e3d
00000020: 2292 f63e afd2 7e3e 41ff 7abc b884 ef3c
00000030: 77c2 9a3f 1cd3 febe 141e ce3e 5306 283f
00000040: c319 9ebc 346d 01c0 c1da 683f b041 2f40
00000050: 860d 01c0 3710 0ebf 5d1a 023f b023 ad3e
00000060: 2f3a 9d3f 0556 a0c0 c586 ac3e c711 2fbf
00000070: d128 ddbe 331b 55bf 89f4 b33d 3fcf ae3f
00000080: 654d 8b3f db83 2c3e 31ee f4be 0861 75be
00000090: d053 01bf 4a7f 1e3f a18a 48bf 14f7 933e
000000a0: 68a7 1a3f 7023 2c40 caec 5b3e 0a29 0dbf
000000b0: 44b0 77be 1ab6 c4be d2cf 84bf e2ae 80be
000000c0: 4e20 003f d630 d1bd d42f 1abd b105 17bd
000000d0: 10f7 5c40 59a0 22bd 1a5e 75be 7191 6d3e
000000e0: bae0 93bd 40a5 bbbe adad a23e 3b77 85bf
000000f0: ce9f 78bf 3dd4 20bd f042 613e a762 243f
00000100: 5e16 39bd 8af6 4a3f 612c 6f3f 9b06 c73f
00000110: 1012 88be 5f4e bcbe db54 3cbe d4c3 083e
00000120: eddb 753f 6d8d c3bf aaa5 6e3e e421 8bbf
00000130: 918d 033f 0ede 34bf bf52 9b3f ca7f 5c3c
00000140: e4f3 babf e3b9 583e ca09 81bf 26af 593f
00000150: a181 673e 06d2 9bbb 5a8e ec3e 9c02 9e3e
00000160: 3933 32bf d8b6 57bf 83b4 3b3f 0b96 aabf
00000170: e67d 103e 5c0a c1bc 7a06 6b3f 2d70 f03d
00000180: f228 14c0 22f8 89bf d028 1a3f 34e3 9bbf
00000190: 1aed 1f40 f6ce 823f b29b 083f d99c 1dbe
000001a0: 8d97 a4bf 5386 5b3e cc64 50bf ea1f f2be
000001b0: cb67 233f aaec 35bf 71a2 853f 1c41 af3e
000001c0: 2f2d ad3f 7a44 09be cc97 adbe 9832 e6bd
000001d0: 74e0 663e 7f0f 6ebf d5e6 a43f 3455 6abe
000001e0: 3ef7 c3bf bc4b 3e3b 1a9a 073f ec57 8cbf
000001f0: 04b2 0fc0 7736 a6be 02c3 d63e dd65 233e
00000200: c640 ebbe c2c7 8b3c 0fa6 883f a6c5 dfbf
00000210: 3277 de3e 94ef ba3f 9322 1dbf 58e5 1a3f
00000220: 9ecd 30c0 7f5e a43e 0fa8 85bf b281 f63e
00000230: 3d64 963e 20bf b0bd c62b 09bd 5b9b 8d3f
00000240: e4d9 b0bf da22 85bf 649c 833e 9d10 0bbf
00000250: 9a48 083d 51d8 b7be f9fa 47bf 9b8e 873f
00000260: 5ebf 1cbe 3a69 91bf 08a4 1dbf 235b 33bf
00000270: b943 07bf 7cc2 cdbf b981 47bf 883f 503e
00000280: 6b24 a63f a4f6 f4bd 1451 3cbf e577 d9bf
00000290: 3ccb 23bf bf7c e93d e953 9c3e 638f 923e
000002a0: 21e2 a13f c79c 8a3e bd70 d0bf 6b0c a8bf
000002b0: a684 a93e 8401 aebf 9a48 a9be 775a e93e
000002c0: 1258 19be 96d4 473c c27e 9b3d 0613 ecbc
000002d0: 6223 39c0 f2de 1cbc 1fd3 0ebf 27c3 49be
000002e0: 0719 2ebf 15c9 293f 3068 5b3e dc3c bdbf
000002f0: 5003 d4bf 588d 79bf cdb8 e73e 7d08 31bf
00000300: 5e19 9c3f 7ec5 57bc ac80 fcbf e472 a6bf
00000310: 965c d2bf b2b2 223f 8c10 293e f4b9 3d3f
00000320: 8f32 d5be 5716 78bf a7e9 c7be c556 c8bf
00000330: bac6 893f ac1a 78bd da90 d8bc ad94 44bd
00000340: 4219 12c0 d25b 123d 7ccc e13e 3a2e 03c0
00000350: 0d0f af3e a53c 3a3c ff97 89bf 2be7 143e
00000360: 5bc7 733f 48b8 1abf 8493 c3bf 5063 9b3f
00000370: 90fb e43f 926e a4be 183d 98bf a8db b03c
00000380: d8eb 5640 7981 483e fad7 c03f 7b53 e4be
00000390: 07b7 a33d faa3 253f 8539 59be 9006 58be
000003a0: cbe9 b3be 4b16 123d ed10 1abf 81ce d2bf
000003b0: 8655 593f c335 cbbd 5ed5 2cbf 22eb 3c3d
000003c0: 1a92 ebbd 55bc ecbd d0c1 003f 6365 17bc
000003d0: 0d1f c1be 405b c13f 66b9 e33e 17fe 8bbf
000003e0: 9d35 12bf 283f bcbe f067 f3be e53f 36bf
000003f0: 37ff c9be 1f96 04c0 16bc 96be 1ded 62be

fc1.bias f4 [64]
-0.12588337 1.595995 1.2046463 -0.27601755 0.8896866 0.13089754 0.14213331 0.4901881
1.3168428 -0.44054532 -0.6291691 0.85747236 -0.52812606 0.398211 0.18235576 -0.4581519
-0.037424352 0.03046988 -0.70927125 -0.024083894 0.175152 -0.14199057 -0.01133397 0.34441015
0.05129098 -0.7358969 -0.20701656 -0.17769243 0.36884078 0.35569087 0.17572902 -1.1256524
0.053472362 0.879692 -0.76824427 -0.2728675 1.4100899 0.08113471 -0.45622897 -1.1452566
0.03750445 -0.5406948 -0.13373166 -0.5436036 0.5320478 -0.22727032 -0.05881114 -0.056798946
0.8457857 0.79040116 -0.24441822 -0.072872624 0.4580228 0.68910176 -0.14947723 -0.3160725
-0.4337254 0.27357048 -0.030561043 0.735478 -0.11559193 1.0819501 0.03771809 -0.38403922
00000000: 92e7 00be 9049 cc3f da31 9a3f 2c52 8dbe
00000010: 80c2 633f 010a 063e 658b 113e eff9 fa3e
00000020: 4e8e a83f 288f e1be 3a11 21bf 4f83 5b3f
00000030: 4533 07bf 50e2 cb3e 78bb 3a3e e392 eabe
00000040: 474a 19bd f89b f93c cd92 35bf 964b c5bc
00000050: 0c5b 333e fa65 11be 1eb2 39bc 8756 b03e
00000060: 7e16 523d bd63 3cbf 26fc 53be 01f5 35be
00000070: b3d8 bc3e 1d1d b63e 4ff2 333e 6115 90bf
00000080: d605 5b3d 7f33 613f a8ab 44bf 4ab5 8bbe
00000090: d37d b43f f429 a63d d896 e9be c597 92bf
000000a0: 449e 193d f96a 0abf f4f0 08be 9b29 0bbf
000000b0: 4934 083f 8db9 68be f3e3 70bd 03a6 68bd
000000c0: 6985 583f bb57 4a3f c548 7abe 3e3e 95bd
000000d0: f781 ea3e f968 303f 8f10 19be 41d4 a1be
000000e0: 4111 debe 6e11 8c3e 275b fabc 4948 3c3f
000000f0: 76bb ecbd 577d 8a3f 497e 1a3d caa0 c4be

fc2.weight f4 [64, 64]
0.400976 0.6350201 -0.5311418 0.5628264 0.18315226 0.016660437 0.3465832 -0.24534562
-0.483499 0.6243505 -0.09326671 -1.0306654 1.4889611 -0.22682372 0.176828 -0.9509423
0.014768777 0.0068061342 -0.1763343 1.072435 -0.10807834 -0.2262814 -0.76958007 -0.53452367
-0.18505014 1.9959735 -0.17156836 0.7120079 2.0098553 1.1720753 0.9816234 1.2045721
0.44252396 -0.18497828 0.69614 -0.4671925 -0.17257881 1.26237 1.2792352 -1.7244282
-1.1115133 1.3506485 -1.4064834 -2.9441075 0.35027212 -1.0516021 0.33858404 0.198562
1.071581 0.25921914 1.251566 -0.3089073 0.6983657 -0.98204774 1.0534599 0.505688
0.86984235 0.3207721 -0.16845854 -0.20918657 -1.0593318 -0.16299728 -0.8600435 0.971387
0.07083286 0.017063988 -0.06820499 -0.032587036 -0.11719087 -0.17035405 -0.027029784 -0.16974191
-0.037042905 0.008172388 -0.0636025 0.025167776 -0.104715206 0.08247117 -0.009978342 0.062058978
0.032588065 -0.11294097 -0.014958795 -0.00055787136 -0.09817644 -0.042672403 -0.0976253 -0.11561421
0.06859422 -0.07566311 0.029301092 -0.047110926 0.08789749 -0.13390937 0.10126127 -0.043585166
-0.0018988634 -0.094853185 0.08905077 -0.018823288 0.009532926 -0.040215015 -0.055586636 0.032106586
-0.124118194 -0.13291739 0.005959001 0.0742565 -0.09809408 -0.10273667 -0.11790143 0.03530522
-0.15592389 -0.15272519 -0.011594757 -0.14466828 -0.03805345 0.07245617 -0.033378158 -0.031954907
0.057075303 0.0051842136 -0.10756866 -0.039063007 0.03232284 -0.032962684 -0.076120876 -0.07327623
-0.4539195 -0.33196795 -1.7945513 -3.02187 -0.102833636 -2.4739728 0.41133043 0.46842617
0.2798629 -1.2700249 -1.3744043 0.5055344 1.0626813 -0.7037599 -3.0766833 0.16248854
0.5622236 -0.4716271 0.56321216 -1.2849135 0.033921063 -1.051934 2.1593528 -0.08509178
-0.37969512 1.8885245 0.46172625 -3.4514754 1.0282581 -0.24549326 0.05833834 0.63538337
0.43352604 -0.8299538 1.1497113 -0.5847355 -1.9327785 1.7217982 0.06300801 -0.55697614
-0.45857823 0.7120651 -1.2899336 0.96875393 -0.27804172 -0.64275014 0.7117984 0.0484702
-1.3521153 -0.7815479 1.7266499 -0.24783716 -0.03738473 0.663432 0.49955785 1.6504743
1.0848684 1.2528582 -1.5085825 0.8420846 0.25842902 0.26077107 0.035325367 -2.5597916
-0.08326132 -0.08201795 -0.0600648 0.046978943 0.09114523 -0.044529453 -0.08148871 -0.020114554
-0.026285708 0.03102902 -0.09479378 0.069229096 0.07155372 -0.05705221 0.007526999 0.01738799
-0.0903765 -0.00840837 -0.043650497 -0.02573709 0.009920701 -0.13880858 -0.06530412 -0.08994129
-0.11975108 -0.15020278 0.11081019 -0.0025869012 -0.1365173 0.041478302 -0.004582852 0.076522
-0.10871857 -0.09295406 -0.018792003 -0.07303046 -0.1170634 0.07848186 0.04425499 -0.047561362
-0.11790228 -0.09428292 0.01829927 -0.037936687 -0.07645866 -0.11290221 0.015793154 -0.042263776
-0.11109976 -0.15405327 -0.06377673 0.10506137 -0.12384462 0.059698194 0.042148292 -0.14970447
-0.1110705 0.050147712 -0.060875088 -0.10709825 -0.12344105 0.07013313 -0.00859906 -0.097866036
00000000: ba4c cd3e ad90 223f e9f8 07bf 6415 103f
00000010: 448c 3b3e 787b 883c 5a73 b13e e23b 7bbe
00000020: 2e8d f7be 6fd5 1f3f 9e02 bfbd d8ec 83bf
00000030: 4796 be3f 7a44 68be 6612 353e f470 73bf
00000040: bef8 713c fe05 df3b fb90 34be 8d45 893f
00000050: 2d58 ddbd 50b6 67be 3303 45bf 8bd6 08bf
00000060: c97d 3dbe 0f7c ff3f 9eaf 2fbe 2646 363f
00000070: 78a1 0040 9006 963f ac4b 7b3f 6b2f 9a3f
00000080: 8092 e23e f26a 3dbe 3b36 323f db33 efbe
00000090: 80b8 30be 5795 a13f fbbd a33f 10ba dcbf
000000a0: 1146 8ebf 0de2 ac3f a607 b4bf 426c 3cc0
000000b0: de56 b33e e69a 86bf e35a ad3e d653 4b3e
000000c0: 9129 893f 5fb8 843e 5133 a03f 1929 9ebe
000000d0: 18c8 323f 7b67 7bbf c6d7 863f c574 013f
000000e0: fdad 5e3f 3e3c a43e 6580 2cbe 0135 56be
000000f0: 2f98 87bf c2e8 26be d02b 5cbf d2ac 783f
00000100: d210 913d c7c9 8b3c 0faf 8bbd fc79 05bd
00000110: c401 f0bd 4b71 2ebe 916d ddbc d3d0 2dbe
00000120: 4dba 17bd 7be5 053c 0742 82bd a72c ce3c
00000130: ed74 d6bd a5e6 a83d 337c 23bc 8e31 7e3d
00000140: 107b 053d 984d e7bd bc15 75bc 1d3e 12ba
00000150: bb10 c9bd 42c9 2ebd c6ef c7bd 25c7 ecbd
00000160: 207b 8c3d 43f5 9abd d808 f03c 63f7 40bd
00000170: 9903 b43d 8a1f 09be 1262 cf3d 5c86 32bd
00000180: 48e3 f8ba 6342 c2bd 4060 b63d 4c33 9abc
00000190: fd2f 1c3c 80b8 24bd d0ae 63bd 3282 033d
000001a0: ae31 febd 7f1b 08be b943 c33b cb13 983d
000001b0: 8de5 c8bd 9a67 d2bd 4e76 f1bd 359c 103d
000001c0: 83aa 1fbe fe63 1cbe f0f7 3dbc ec23 14be
000001d0: efdd 1bbd e763 943d 89b7 08bd 26e3 02bd
000001e0: cbc7 693d 56e0 a93b f54c dcbd 8800 20bd
000001f0: f464 043d e103 07bd 43e5 9bbd d911 96bd
00000200: 2368 e8be b4f7 a9be dbb3 e5bf 5166 41c0
00000210: 719a d2bd 9255 1ec0 e799 d23e 8ed5 ef3e
00000220: 314a 8f3e 2d90 a2bf 7bec afbf b46a 013f
00000230: f105 883f 9c29 34bf 61e8 44c0 6563 263e
00000240: e3ed 0f3f 1b79 f1be ac2e 103f 0c78 a4bf
00000250: d0f0 0a3d c6a5 86bf d632 0a40 9944 aebd
00000260: 6667 c2be 2cbb f13f 6267 ec3e f9e4 5cc0
00000270: f69d 833f 9662 7bbe 2ff4 6e3d 7ca8 223f
00000280: 20f7 dd3e da77 54bf bd29 933f 3ab1 15bf
00000290: 4965 f7bf e263 dc3f 580a 813d fd95 0ebf
000002a0: c4ca eabe e649 363f 8b1c a5bf 4200 783f
000002b0: 7c5b 8ebe 468b 24bf 6c38 363f b088 463d
000002c0: 1d12 adbf 8613 48bf dd02 dd3f 06c9 7dbe
000002d0: bb20 19bd aed6 293f 0cc6 ff3e be42 d33f
000002e0: f8dc 8a3f a85d a03f 3b19 c1bf db92 573f
000002f0: cf50 843e c983 853e 55b1 103d a0d3 23c0
00000300: e984 aabd 07f9 a7bd 8206 76bd fe6c 403d
00000310: 5aaa ba3d 8464 36bd 8ee3 a6bd 47c7 a4bc
00000320: 2055 d7bc 9230 fe3c 3e23 c2bd fcc7 8d3d
00000330: c28a 923d 94af 69bd 0ba5 f63b 4271 8e3c
00000340: 5017 b9bd 43c3 09bc ddca 32bd 97d6 d2bc
00000350: 708a 223c d623 0ebe 2bbe 85bd 2433 b8bd
00000360: 0e40 f5bd c2ce 19be 74f0 e23d 0089 29bb
00000370: 31cb 0bbe 27e5 293d c02b 96bb 91b7 9c3d
00000380: d7a7 debd b35e bebd b0f1 99bc fe90 95bd
00000390: f0be efbd 19bb a03d b844 353d b4cf 42bd
000003a0: c076 f1bd 6717 c1bd 5ae8 953c 8063 1bbd
000003b0: 5c96 9cbd 4639 e7bd a560 813c c81c 2dbd
000003c0: 4588 e3bd 24c0 1dbe 609d 82bd 6a2a d73d
000003d0: 40a2 fdbd 1886 743d b0a3 2c3d 214c 19be
000003e0: ee78 e3bd b067 4d3d 2858 79bd 5456 dbbd
000003f0: a9ce fcbd f5a1 8f3d 12e3 0cbc fd6d c8bd

fc2.bias f4 [64]
-0.09412267 -0.17306136 -1.1846974 -0.0031646362 0.37489966 0.2860794 -0.7019334 0.2410208
-0.70293915 0.5581379 -0.6175832 0.4678541 0.16226488 0.45586517 -0.051051214 0.56416124
-0.25237846 -0.4764772 0.11700265 -0.029436743 -0.3711276 0.08056282 0.36766455 -0.16854711
0.22814366 -0.15984163 -0.05681879 1.3756865 0.53923726 -0.1607042 -0.12077095 0.3868746
0.19619969 0.3263441 0.18899222 0.062054507 -0.9830847 0.124006145 -0.4512537 0.3030425
-0.15676202 0.53799707 0.031037688 -0.0790612 0.15172374 -0.9240862 0.69838727 -0.07200806
-0.44255358 0.0040728613 0.46654788 -0.14872645 0.16097905 0.14035338 -0.17552482 0.95153606
0.17782226 -0.08841731 -0.464498 -0.7668915 0.17763303 -0.08934827 -0.05856939 0.03109887
00000000: 63c3 c0bd ff36 31be 2aa4 97bf c965 4fbb
00000010: d9f2 bf3e 0079 923e e8b1 33bf 28ce 763e
00000020: d2f3 33bf 20e2 0e3f ef19 1ebf 938a ef3e
00000030: c428 263e 2967 e93e 141b 51bd df6c 103f
00000040: c037 81be d2f4 f3be 169f ef3d 5325 f1bc
00000050: 7004 bebe 1ffe a43d 873e bc3e 9d97 2cbe
00000060: 7e9e 693e 86ad 23be d2ba 68bd 7f16 b03f
00000070: 740b 0a3f a48f 24be c356 f7bd 6d14 c63e
00000080: 92e8 483e 9316 a73e 2d87 413e de2c 7e3d
00000090: 70ab 7bbf eff6 fd3d ba0a e7be 6328 9b3e
000000a0: 3986 20be 2dba 093f c042 fe3c d7ea a1bd
000000b0: 785d 1b3e ea90 6cbf 82c9 323f f678 93bd
000000c0: 6296 e2be a375 853b 5ddf ee3e bf4b 18be
000000d0: b1d7 243e ccb8 0f3e c7bc 33be de97 733f
000000e0: 0a17 363e 2214 b5bd afd2 edbe 0053 44bf
000000f0: 6fe5 353e 3afc b6bd 75e6 6fbd 0fc3 fe3c

fc3.weight f4 [4, 64]
-1.0217012 -0.022821546 2.4278378 -0.025838569 -1.1615194 -0.97997767 -0.8959921 -0.96007264
1.1417003 1.9511001 -1.7711382 1.1904045 -0.37670863 1.3924484 -0.018916473 2.9887471
-0.9314526 2.008453 0.016985849 -0.73620063 -1.6727223 -0.88219297 -0.4516762 0.2901952
-1.6777828 -0.010257049 1.6532236 1.6289859 -0.19146097 -0.78664386 0.10524657 0.3263687
1.5190202 -1.1122575 -0.48976645 2.8117237 -1.4500157 -1.5919527 -0.25501457 3.2086346
-0.7231062 1.6538489 0.8269238 -0.6045722 -0.47844142 -1.1410416 2.0529714 -0.70912194
2.2456088 -2.6350946 -0.14736235 1.8010873 1.7134006 -0.54219663 0.016326085 2.3766913
-0.67572546 -0.051643282 -1.6671906 -1.6795428 -0.023634592 0.092372105 -0.0065117995 -0.77603626
-0.8927654 0.06051725 2.1562297 0.101133555 -1.6693506 -0.9675398 -1.6878068 -0.7933248
1.3263272 2.3939462 -0.91304624 1.335443 -0.83203375 1.4526931 0.10819565 3.2904596
-1.740391 2.059966 -0.060062632 -0.77917564 -0.37008244 -0.43711096 -0.26839408 0.7842171
-2.0462232 0.07936388 1.9737102 1.4144913 -0.5497417 -0.87822515 -0.051249072 0.4490395
1.3565407 -1.0523145 -0.64230675 2.8031895 -0.7506741 -0.88298774 -0.69528776 2.9684453
-0.8538937 1.8322448 1.5916853 -0.6905243 -0.20144907 -2.253879 1.9125828 -0.5821424
2.2273116 -2.052377 -0.8489585 1.8397045 1.4042599 -0.81366086 -0.06132324 2.029493
-0.78830934 0.029563755 -1.6353341 -2.3129342 -0.6848609 0.07633106 0.06477584 -0.7605887
-0.6925266 0.07545958 1.9274589 -0.002813514 -0.7280036 -0.75075585 -1.2310513 -0.8539617
1.1678691 1.5659171 -1.5321432 1.3046463 -1.1340326 1.9395248 0.026983729 2.7407286
-2.3308766 1.9553496 0.058737308 -0.36978874 -1.098846 -0.9298472 -0.5427817 0.5348556
-1.6843438 0.029642805 1.8719388 1.779955 -1.1905335 -0.6211584 -0.009446684 0.82489693
1.0847076 -0.9698991 -0.43264756 2.6609473 -3.0597904 -1.8578144 -1.5359898 3.1134982
-1.4573135 1.5161284 -1.0292029 -1.1608859 -0.51457137 -1.0312312 2.1192715 -0.34106535
2.57789 -1.7754714 1.3752956 0.64254034 1.5974811 -1.0050468 -0.058562703 2.6817398
-0.49894625 -0.049759686 -2.1970093 -1.433673 -1.1576549 0.05160589 0.012850778 -1.6508135
-0.7129085 -0.08341997 2.9656887 0.0869091 -0.9409225 -0.9047946 -2.5127048 -0.86719936
1.2154987 1.6737548 -1.854239 1.1698843 -0.2860419 1.5762148 0.010345972 2.7865849
-1.1219242 2.1017542 0.07344793 -0.6446847 -2.9346976 -0.6523943 -0.92812276 -0.7679515
-1.4506364 0.008783468 1.6016818 1.7685676 -0.33845153 -0.98223734 -0.00029066205 -0.3451136
1.5657761 -0.88058966 -0.31567898 2.4252958 -1.8146526 -1.2862806 -0.98557943 2.8434505
-1.0332127 1.7927961 0.49585813 -0.4181187 -0.99354506 -1.8698605 2.462233 -0.14263602
1.8812982 -2.3503847 -0.47913054 1.4765885 1.9270743 -0.6349203 0.10106948 2.2255032
-0.8005871 -0.052254677 -3.2135623 -1.285045 -0.33571264 -0.074296296 0.07052754 1.2487037
00000000: 1bc7 82bf 40f4 babc b261 1b40 68ab d3bc
00000010: abac 94bf d1df 7abf bd5f 65bf 52c7 75bf
00000020: 3c23 923f a6bd f93f a8b4 e2bf 2d5f 983f
00000030: f4df c0be c03b b23f b8f6 9abc a247 3f40
00000040: ad73 6ebf 7e8a 0040 e825 8b3c a577 3cbf
00000050: c41b d6bf 66d7 61bf 1a42 e7be 7794 943e
00000060: 96c1 d6bf 2f0d 28bc d59c d33f 9c82 d03f
00000070: 580e 44be 7e61 49bf 848b d73d cc19 a73e
00000080: 416f c23f 745e 8ebf abc2 fabe 48f3 3340
00000090: 1d9a b9bf 1bc5 cbbf 4591 82be 455a 4d40
000000a0: 7d1d 39bf 52b1 d33f 47b1 533f 3ec5 1abf
000000b0: 46f6 f4be a70d 92bf e263 0340 0489 35bf
000000c0: 0eb8 0f40 64a5 28c0 28e6 16be 078a e63f
000000d0: b650 db3f 66cd 0abf 48be 853c b61b 1840
000000e0: 58fc 2cbf e887 53bd 8066 d5bf 42fb d6bf
000000f0: 559d c1bc 962d bd3d ef60 d5bb 50aa 46bf
00000100: 468c 64bf f0e0 773d abff 0940 1c1f cf3d
00000110: 48ad d5bf b0b0 77bf 0e0a d8bf 5617 4bbf
00000120: 17c5 a93f 6a36 1940 66bd 69bf ccef aa3f
00000130: 2a00 55bf d9f1 b93f ae95 dd3d e496 5240
00000140: 22c5 debf 7cd6 0340 3c04 76bd 0e78 47bf
00000150: 727b bdbe 02cd dfbe f36a 89be 74c2 483f
00000160: 52f5 02c0 8889 a23d 89a2 fc3f 0d0e b53f
00000170: dfbb 0cbf 5dd3 60bf 8cea 51bd 81e8 e53e
00000180: 20a3 ad3f 3eb2 86bf 376e 24bf 7567 3340
00000190: 2e2c 40bf 7c0b 62bf 61fe 31bf 02fb 3d40
000001a0: c798 5abf ff86 ea3f 58bc cb3f 33c6 30bf
000001b0: aa48 4ebe 8e3f 10c0 83cf f43f 4907 15bf
000001c0: 468c 0e40 255a 03c0 5855 59bf 707b eb3f
000001d0: cabe b33f 144c 50bf 142e 7bbd 37e3 0140
000001e0: a4ce 49bf b02f f23c a152 d1bf 1d07 14c0
000001f0: 0b53 2fbf 7553 9c3d 32a9 843d f1b5 42bf
00000200: 6c49 31bf 8d8a 9a3d f9b6 f63f ef62 38bb
00000210: 725e 3abf 8931 40bf 1793 9dbf 3c9d 5abf
00000220: bc7c 953f f96f c83f 451d c4bf a6fe a63f
00000230: fb27 91bf 5942 f83f fb0c dd3c 1968 2f40
00000240: 152d 15c0 e548 fa3f 8896 703d f354 bdbe
00000250: fca6 8cbf 770a 6ebf bef3 0abf 4cec 083f
00000260: 9498 d7bf 78d5 f23c b19b ef3f 91d5 e33f
00000270: 6763 98bf 3d04 1fbf 44c6 1abc 722c 533f
00000280: b3d7 8a3f 4f4b 78bf fb83 ddbe f64c 2a40
00000290: 9bd3 43c0 ddcc edbf 509b c4bf 8e43 4740
000002a0: 4089 babf 7f10 c23f ecbc 83bf e997 94bf
000002b0: f3ba 03bf 62ff 83bf 25a2 0740 1ea0 aebe
000002c0: 26fc 2440 a642 e3bf b009 b03f 867d 243f
000002d0: 437a cc3f 60a5 80bf 72df 6fbd a0a1 2b40
000002e0: e275 ffbe d0d0 4bbd cd9b 0cc0 9982 b7bf
000002f0: 092e 94bf b360 533d 128c 523c db4d d3bf
00000300: 2c81 36bf 17d8 aabd d8cd 3d40 66fd b13d
00000310: 4ce0 70bf 9ea0 67bf 28d0 20c0 c700 5ebf
00000320: 7695 9b3f 993d d63f b457 edbf c5be 953f
00000330: 1574 92be 68c1 c93f 2782 293c 6857 3240
00000340: 369b 8fbf 2483 0640 de6b 963d 0e0a 25bf
00000350: 16d2 3bc0 5003 27bf 7499 6dbf 7898 44bf
00000360: 74ae b9bf 89e8 0f3c e903 cd3f 6c60 e23f
00000370: 8549 adbe e873 7bbf 0064 98b9 bbb2 b0be
00000380: 5a6b c83f 536e 61bf ada0 a1be 0c38 1b40
00000390: 8946 e8bf d8a4 a4bf ef4e 7cbf 18fb 3540
000003a0: 5040 84bf 587a e53f 1ee1 fd3e a713 d6be
000003b0: f858 7ebf 9757 efbf 3a95 1d40 2d0f 12be
000003c0: 61ce f03f b46c 16c0 9950 f5be da00 bd3f
000003d0: 5faa f63f 238a 22bf 84fd ce3d a56e 0e40
000003e0: 47f3 4cbf 0009 56bd 01ab 4dc0 5b7c a4bf
000003f0: 87e2 abbe a828 98bd be70 903d 86d5 9f3f

fc3.bias f4 [4]
1.1146139 0.5406754 0.41823766 1.165459
00000000: abab 8e3f b469 0a3f 3f23 d63e c32d 953f
