LunarLander-v2_results/LunarLander-v2_weights.pth (torch, 22303 bytes, 6 tensors)

fc1.weight f4 [64, 8]
0.6477162 0.071666114 -0.4459086 -0.2060679 1.6452411 -0.46174765 -0.56130457 0.027867079
0.8168392 0.6983336 -0.26325336 1.4261162 -1.32216 -0.8420888 0.12379381 -0.0069734035
-0.45700333 0.7462041 -1.262387 -0.72250086 -0.785254 -0.31970185 -0.017838124 -1.0116618
0.12211055 0.7402441 0.18814708 0.87832546 -0.20888866 -0.3899133 -0.082195096 0.16056445
2.9807026 -0.1569674 0.9990797 0.1894206 -0.56409204 -0.1342397 0.01692719 -0.030740004
-0.3654109 0.006877399 -0.32700858 0.1892626 -0.8873959 -0.3712213 0.1433105 0.98631847
0.046109095 1.8931518 0.66000396 -1.3758945 -0.8103074 -0.97119546 0.027221078 -0.033082463
-0.23343639 -0.06321121 -0.18390588 -0.123222984 -0.073171996 -1.0663131 -0.6118765 0.45467922
-0.5336463 -1.7454255 0.8321756 -2.2155256 0.6744465 -0.16493571 -0.05853028 0.5725582
-0.49895644 1.2377529 -0.07039895 -0.51643986 1.4670978 0.209427 -0.077125944 -0.8028663
0.05986823 0.7045963 0.87348413 -0.0329269 0.42626348 -0.1786572 -0.40066224 0.6124027
0.114856616 -0.93420815 -1.6868856 -1.7924025 -0.37215018 0.051054668 -0.71693254 -0.7420983
-0.066520154 0.039267376 -0.18095452 -0.08135076 -0.87904394 -1.1694218 -1.4832937 -0.05773415
-0.7407163 -1.2794751 0.8356095 -0.94567317 -0.4122546 0.9609195 0.13719806 -0.22596602
-0.084091224 0.15197375 0.08118252 -0.001619851 -2.0947716 -0.07300582 -0.10697445 0.08305528
0.31726345 -2.5337403 1.7395371 2.4660058 -0.7392916 0.20117761 0.6987092 -0.51092684
0.332381 -1.70768 -0.881529 -1.748194 0.15106116 1.1928183 0.7965829 -0.20624052
0.62648517 -0.61261326 2.7809107 -0.6542206 -0.9223269 0.45865035 -0.12789188 -0.10185168
0.95238155 -0.33452377 -0.8343127 -0.2769566 1.5096716 -0.333864 -0.06451722 0.38783273
-1.405248 -0.98703885 0.20595574 -0.089837804 -0.37004504 -0.9049825 0.2981027 -2.1449194
-1.3824061 0.76040685 -0.37542337 -1.658782 -0.7102998 -0.3347056 -0.72473615 -0.4501999
-0.8275448 1.89385 -0.19224715 0.98498297 0.6945363 -0.35142326 0.73308045 -0.6877263
0.0846273 -0.053720374 0.82444364 -2.4095726 0.07363635 -0.13691323 0.40818825 0.042931505
-0.45796138 0.15619297 -0.30309033 0.54071003 0.95583683 0.8667002 0.2278891 -1.7920945
0.11965875 0.7894952 -1.3186918 -1.8084939 -0.16330566 0.4700738 -0.2231894 0.36162868
-0.25543076 0.18558508 0.021851132 0.51267433 -0.7398771 -1.0998982 0.19199468 0.56144094
-0.25909826 -0.84687483 0.09617177 -1.481869 0.89218426 0.53295505 0.17797716 0.52276593
-0.076244816 0.085308135 0.07529914 -0.112684235 2.6198657 -0.16417773 -1.165622 0.06375011
-0.09056097 0.21486758 -0.07708626 -0.7598899 0.51348346 -0.7245968 -0.2897539 -0.37631088
-0.6014398 0.26080418 0.23501289 0.7531104 -0.5967143 -1.2403075 -0.20569453 1.7221992
2.2824295 0.012076929 0.5095981 -1.2069777 -0.30720955 0.23897046 -0.013347647 0.21313645
0.22681876 -0.57617575 0.04594687 -0.32815558 -1.428135 -1.352813 -1.9791794 0.4814993
00000000: bbd0 253f afc5 923d 224e e4be 7703 53be
00000010: 4397 d23f 306a ecbe a8b1 0fbf 8049 e43c
00000020: 601c 513f fec5 323f 25c9 86be fa8a b63f
00000030: 8a3c a9bf 2293 57bf 9c87 fd3d 2681 e4bb
00000040: 57fc e9be 3b07 3f3f e695 a1bf d1f5 38bf
00000050: 6806 49bf f6af a3be 4221 92bc 227e 81bf
00000060: 1915 fa3d a380 3d3f a1a9 403e f0d9 603f
00000070: e9e6 55be b7a2 c7be e755 a8bd 026b 243e
00000080: d5c3 3e40 10bc 20be b0c3 7f3f 79f7 413e
00000090: 5668 10bf 2276 09be e4aa 8a3c 76d2 fbbc
000000a0: 2317 bbbe ce5b e13b ab6d a7be 0ece 413e
000000b0: 612c 63bf b810 bebe fdbf 123e 5e7f 7c3f
000000c0: e4dc 3c3d cc52 f23f 05f6 283f 501d b0bf
000000d0: 4e70 4fbf 44a0 78bf bdfe de3c 7a81 07bd
000000e0: f309 6fbe e174 81bd d351 3cbe 555c fcbd
000000f0: 33db 95bd f37c 88bf f0a3 1cbf b7cb e83e
00000100: 0b9d 08bf 1a6a dfbf 7609 553f 2ccb 0dc0
00000110: 87a8 2c3f e8e4 28be 72bd 6fbd 2d93 123f
00000120: 3877 ffbe b06e 9e3f 532d 90bd 6735 04bf
00000130: dcc9 bb3f 0874 563e 35f4 9dbd a588 4dbf
00000140: 6438 753d 6c60 343f a89c 5f3f 5bde 06bd
00000150: 353f da3e eaf1 36be 9a23 cdbe 6cc6 1c3f
00000160: f239 eb3d 4428 6fbf deeb d7bf 726d e5bf
00000170: 788a bebe b31e 513d e488 37bf 27fa 3dbf
00000180: b83b 88bd d4d6 203d 244c 39be 3a9b a6bd
00000190: 0609 61bf 9daf 95bf 91dc bdbf a57a 6cbd
000001a0: 959f 3dbf d7c5 a3bf 81ea 553f a317 72bf
000001b0: 0913 d3be d2fe 753f a67d 0c3e a363 67be
000001c0: 0538 acbd 029f 1b3e 0543 a63d 2e51 d4ba
000001d0: bd10 06c0 1384 95bd 6c15 dbbd e318 aa3d
000001e0: 5b70 a23e cd28 22c0 27a9 de3f 0ad3 1d40
000001f0: 3742 3dbf 8101 4e3e 9bde 323f 1acc 02bf
00000200: d82d aa3e 4295 dabf e2ab 61bf d2c4 dfbf
00000210: c7af 1a3e 45ae 983f dbec 4b3f b730 53be
00000220: 5561 203f 39d4 1cbf 71fa 3140 007b 27bf
00000230: 9e1d 6cbf 38d4 ea3e 17f6 02be 9d97 d0bd
00000240: 47cf 733f b346 abbe 8495 55bf 41cd 8dbe
00000250: eb3c c13f 39f0 aabe 9b21 84bd 0392 c63e
00000260: 2bdf b3bf 94ae 7cbf 10e6 523e e2fc b7bd
00000270: 8b76 bdbe efac 67bf eba0 983e 5c46 09c0
00000280: aff2 b0bf 06aa 423f 7e37 c0be f852 d4bf
00000290: 35d6 35bf 885e abbe 4f88 39bf 9a80 e6be
000002a0: fad9 53bf ad69 f23f 70dc 44be d827 7c3f
000002b0: 22cd 313f c0ed b3be 29ab 3b3f d50e 30bf
000002c0: 1451 ad3d e509 5cbd bd0e 533f 7036 1ac0
000002d0: a8ce 963d fb32 0cbe 0dfe d03e f2d8 2f3d
000002e0: ea79 eabe 0df1 1f3e a82e 9bbe f96b 0a3f
000002f0: b9b1 743f 10e0 5d3f c35b 693e 5a63 e5bf
00000300: a60f f53d 5c1c 4a3f e5ca a8bf ba7c e7bf
00000310: 9939 27be 83ad f03e c38b 64be 6527 b93e
00000320: d2c7 82be 040a 3e3e 2501 b33c a03e 033f
00000330: 9668 3dbf 77c9 8cbf 419a 443e 98ba 0f3f
00000340: 87a8 84be cacc 58bf b4f5 c43d e2ad bdbf
00000350: 3066 643f be6f 083f a53f 363e fdd3 053f
00000360: 3e26 9cbd 08b6 ae3d 6f36 9a3d fec6 e6bd
00000370: e1ab 2740 351e 28be 1a33 95bf 6b8f 823d
00000380: 0878 b9bd 3f06 5c3e 67df 9dbd 2588 42bf
00000390: a773 033f 2d7f 39bf a05a 94be d2ab c0be
000003a0: f5f7 19bf 2088 853e 38a7 703e d8cb 403f
000003b0: 45c2 18bf 65c2 9ebf 96a1 52be 0671 dc3f
000003c0: 5313 1240 50de 453c 0575 023f 3f7e 9abf
000003d0: 924a 9dbe acb4 743e 17b0 5abc 7140 5a3e
000003e0: 2d43 683e 4180 13bf c932 3c3d 0204 a8be
000003f0: 21cd b6bf fa28 adbf c055 fdbf 1487 f63e

fc1.bias f4 [64]
0.12526025 -0.09123831 -0.62615776 1.3109415 -0.058407817 -0.6749848 0.22563292 0.37880552
0.44531158 -0.23573989 0.3192121 0.9643875 -0.057514343 -0.08341014 -0.18761568 0.42667833
-0.47098178 0.556221 -0.35284963 0.7657906 0.16542542 0.6116491 -0.010755873 0.31330875
0.11084462 -0.14877465 -0.029004421 -0.105956376 0.526317 0.583888 -0.2848579 -0.107880905
0.74251044 0.047386024 0.13150246 -0.25185606 0.43705186 0.077084534 -0.7606655 0.24831477
0.5241375 1.3258593 0.7411022 0.17970207 -0.00066548877 -0.057876237 0.21169548 0.28899693
-0.016398964 -0.43327314 -0.3050091 0.09727958 -0.48823297 0.25497255 -0.21625116 1.2089548
-0.41857567 0.08695694 0.164198 0.09267867 0.29878357 0.16797164 0.0882528 0.25763392
00000000: 3944 003e 27db babd e04b 20bf eecc a73f
00000010: 093d 6fbd cecb 2cbf 510c 673e ccf2 c13e
00000020: e1ff e33e cc65 71be c56f a33e 19e2 763f
00000030: 2994 6bbd efd2 aabd 531e 40be 9575 da3e
00000040: 8624 f1be 8064 0e3f b5a8 b4be da0a 443f
00000050: 4865 293e 0995 1c3f 6739 30bc 016a a03e
00000060: 8102 e33d 6258 18be ae9a edbc a8ff d8bd
00000070: b6bc 063f af79 153f e5d8 91be aaf0 dcbd
00000080: 2a15 3e3f d917 423d 95a8 063e 47f3 80be
00000090: 43c5 df3e 7fde 9d3d f9ba 42bf 3a46 7e3e
000000a0: e02d 063f c2b5 a93f e0b8 3d3f d203 383e
000000b0: 3274 2eba a20f 6dbd b3c6 583e 68f7 933e
000000c0: 1f57 86bc fad5 ddbe 272a 9cbe 843a c73d
000000d0: acf9 f9be c38b 823e f270 5dbe 08bf 9a3f
000000e0: 8d4f d6be 7b16 b23d 8523 283e 51ce bd3d
000000f0: 29fa 983e c200 2c3e e2bd b43d 98e8 833e

fc2.weight f4 [64, 64]
0.5770734 0.5118353 0.89505816 -0.3277896 1.1664459 0.4999668 0.08363094 0.48058787
-0.6382609 -0.8724738 0.10592751 -0.019406214 0.7110732 -0.11157796 -0.80945975 0.29022992
0.5796239 -0.4054356 -0.112555794 0.56783324 0.35421115 0.12887843 -0.4408468 0.63879335
0.26361245 0.47615942 0.36475122 -1.3326089 -0.16734684 -0.07478938 1.0940679 -0.1560231
0.049662672 0.28647944 0.23062047 0.8869691 0.5187594 0.29279223 0.54515886 -0.3267672
-0.26144406 -0.27713332 0.16561735 0.45555764 -0.18718825 0.051808022 -0.36197206 0.5314979
0.038303833 0.3507416 1.6690754 0.268631 0.6385931 -0.48592564 0.71540254 -0.24464308
0.4347302 0.929721 0.3822398 0.09788254 0.11630168 0.41368735 0.45176888 0.19919053
-0.89927715 -1.2985585 0.28472787 -1.2287763 -0.90761834 -0.62311035 -0.89371085 0.05236093
0.3436483 -1.4120877 -0.14442173 0.20830175 -0.34771338 1.0789596 -0.250486 -0.24150595
0.58497953 -0.08386276 -0.45942572 0.599916 -0.5000606 -0.79351264 0.482296 -0.7434538
0.34546942 -0.022180198 0.6391493 0.34882507 -1.3084356 -0.7356648 -0.6960688 -0.22634555
0.17277248 -0.20372514 0.44475135 1.329469 0.22998694 -0.98714757 0.40848008 0.18923452
-0.07911249 -0.8204239 0.17442505 -1.1020987 0.17086583 -1.5012422 0.46067324 0.22535793
0.33711198 -1.1306243 0.64877605 0.54204375 0.14628379 -0.44552833 0.45516387 -1.7353922
0.67324674 0.32868987 -0.66515464 0.11071444 0.7255735 -2.1651165 -0.04712816 0.39276302
0.033716485 1.0285375 0.92375237 -1.0747106 1.6116096 0.49240875 0.6921938 -0.01765573
-0.17041151 -3.3117533 -0.5022978 -0.62226546 1.047245 -0.22198828 0.018032188 0.6082079
-0.4007706 0.89866126 -0.31158322 -0.842546 -0.39146918 -1.1786834 0.23230481 -0.6890676
0.058553286 0.583955 0.45961267 0.19441235 -0.4762999 -0.59656936 0.9052258 0.28323847
-0.68351924 0.996915 -0.24401325 -0.5044647 -0.125247 -1.0501429 0.8150006 -0.55815864
-0.51651096 -2.6282363 -0.3581386 0.60394275 0.653198 -0.2848359 -1.0819774 -0.17998526
-0.02885193 0.38398278 -0.24208091 -0.4044966 0.9585271 -1.106837 1.0305628 -0.9345748
0.58767575 -0.53927743 0.7270763 0.1632473 -0.106015205 0.32163626 0.55549824 0.0311143
-0.05064736 -0.87340575 -1.0330373 0.88049394 -1.9015712 -0.20756024 -1.3949593 0.44080484
1.0989467 1.9420546 0.037757248 0.9478096 -1.7821274 1.0084882 0.8651563 -0.15346889
0.85847276 1.3036937 0.19218369 1.1681186 -1.2061269 -0.47854105 0.3612615 -0.20635848
-0.35087878 -0.11127615 0.10675639 0.48054925 0.19808821 1.0403006 -1.1589056 -0.108008556
0.66858 -0.7875338 0.52851486 -0.48009446 0.22627783 -2.145748 -0.27729034 0.7997437
0.3727779 0.2789462 1.2692378 1.1796814 0.011731242 -0.4377941 -0.84675854 0.33408895
0.07240581 0.14411734 -1.4454787 -0.17422067 -0.07072625 0.36506692 -0.6736303 0.97115266
-0.69063836 0.4169344 -0.84960973 1.1249579 0.005767355 -0.2381735 -1.3212883 0.8055575
00000000: 15bb 133f a307 033f 8822 653f 0ad4 a7be
00000010: 194e 953f a6fb ff3e b346 ab3d 9d0f f63e
00000020: 1165 23bf 715a 5fbf 86f0 d83d c8f9 9ebc
00000030: e508 363f fc82 e4bd c138 4fbf 0499 943e
00000040: 3b62 143f 4195 cfbe a783 e6bd 855d 113f
00000050: 2a5b b53e b5f8 033e acb6 e1be f687 233f
00000060: 36f8 863e 2bcb f33e acc0 ba3e ee92 aabf
00000070: f85c 2bbe 2d2b 99bd 6b0a 8c3f 85c4 1fbe
00000080: 166b 4b3d 6fad 923e c627 6c3e 6810 633f
00000090: 6bcd 043f dde8 953e 888f 0b3f 084e a7be
000000a0: ffdb 85be 6be4 8dbe 9897 293e da3e e93e
000000b0: 47ae 3fbe a634 543d 6754 b9be 3f10 083f
000000c0: 7be4 1c3d 6794 b33e 43a4 d53f 018a 893e
000000d0: d67a 233f 3fcb f8be 9f24 373f b783 7abe
000000e0: f594 de3e 3202 6e3f efb4 c33e a476 c83d
000000f0: 932f ee3d d4ce d33e 404e e73e 9af8 4b3e
00000100: 0737 66bf 2a37 a6bf dac7 913e 8b48 9dbf
00000110: ad59 68bf 2984 1fbf 3cca 64bf 6a78 563d
00000120: acf2 af3e 4abf b4bf 4ae3 13be 0e4d 553e
00000130: 7d07 b2be 591b 8a3f b33f 80be 564d 77be
00000140: 38c1 153f 3dc0 abbd d939 ebbe 1894 193f
00000150: f903 00bf a523 4bbf 80ef f63e fd52 3ebf
00000160: 5ee1 b03e 3fb3 b5bc 4a9f 233f 3399 b23e
00000170: d17a a7bf 8754 3cbf 9131 32bf 21c7 67be
00000180: 45eb 303e 539d 50be 73b6 e33e 0a2c aa3f
00000190: b281 6b3e b4b5 7cbf 4d24 d13e b2c6 413e
000001a0: bb05 a2bd 4d07 52bf 7b9c 323e 9211 8dbf
000001b0: 74f7 2e3e b428 c0bf 5ddd eb3e 3bc4 663e
000001c0: f199 ac3e 4cb8 90bf 3016 263f 61c3 0a3f
000001d0: 6bcb 153e 4a1c e4be 3d0b e93e 5521 debf
000001e0: e659 2c3f 0a4a a83e 9347 2abf 41be e23d
000001f0: 2fbf 393f 4591 0ac0 7509 41bd 3c18 c93e
00000200: 4c1a 0a3d 1ea7 833f 097b 6c3f 1e90 89bf
00000210: 3949 ce3f 001d fc3e 9d33 313f c0a2 90bc
00000220: 5b80 2ebe c4f3 53c0 9796 00bf ca4c 1fbf
00000230: 200c 863f e550 63be 3db8 933c 83b3 1b3f
00000240: ce31 cdbe aa0e 663f d687 9fbe 18b1 57bf
00000250: a66e c8be 19df 96bf 50e1 6d3e bc66 30bf
00000260: 92d5 6f3d 137e 153f 5a52 eb3e 0814 473e
00000270: 95dd f3be c5b8 18bf e1bc 673f a204 913e
00000280: 1efb 2ebf d235 7f3f 9cde 79be 9924 01bf
00000290: c040 00be 156b 86bf e1a3 503f 7ce3 0ebf
000002a0: 103a 04bf 0635 28c0 f15d b7be fe9b 1a3f
000002b0: fc37 273f 03d6 91be 3c7e 8abf 0e4e 38be
000002c0: e25a ecbc 6499 c43e 0fe4 77be 2e1a cfbe
000002d0: 0862 753f d6ac 8dbf 7be9 833f 4b40 6fbf
000002e0: eb71 163f 160e 0abf ac21 3a3f 4d2a 273e
000002f0: 801e d9bd 82ad a43e 2235 0e3f 6be3 fe3c
00000300: 9b73 4fbd 8597 5fbf 913a 84bf 0d68 613f
00000310: af66 f3bf ac8a 54be 078e b2bf 2cb1 e13e
00000320: 49aa 8c3f 3f95 f83f 58a7 1a3d a6a3 723f
00000330: c01c e4bf 2416 813f e27a 5d3f f326 1dbe
00000340: dfc4 5b3f 6fdf a63f cdcb 443e e984 953f
00000350: 5e62 9abf 5503 f5be 44f7 b83e a34f 53be
00000360: 62a6 b3be c0e4 e3bd 18a3 da3d 8d0a f63e
00000370: a3d7 4a3e 9228 853f 0557 94bf 9733 ddbd
00000380: 0f28 2b3f d19b 49bf c04c 073f f1ce f5be
00000390: 60b5 673e ef53 09c0 00f9 8dbe 01bc 4c3f
000003a0: bfdc be3e 09d2 8e3e 6276 a23f cdff 963f
000003b0: 6534 403c 8c26 e0be 2bc5 58bf b50d ab3e
000003c0: 7f49 943d 7f93 133e 7205 b9bf e766 32be
000003d0: edd8 90bd 0dea ba3e 0973 2cbf 769d 783f
000003e0: adcd 30bf 6d78 d53e 0680 59bf 9ffe 8f3f
000003f0: 15fc bc3b c1e3 73be fa1f a9bf 0439 4e3f

fc2.bias f4 [64]
0.06065572 -0.26698092 -0.6002225 0.21546674 -0.33789352 0.1805563 -0.6738323 0.39315066
-0.65414226 0.6962921 0.036558665 0.35831502 -0.0566227 0.046836793 -0.58816254 0.39828524
0.38439012 -0.073486656 0.37591457 0.18417703 -0.31945595 -0.071567096 0.09323362 -0.06309612
-0.4142368 0.3564666 0.018224083 0.06690652 0.22992493 -0.025169367 -0.014018876 -0.7214238
0.45055103 -0.15687002 -0.29291746 0.061397906 0.66133046 -0.043357123 0.20555195 -0.07694951
-0.06783471 -0.41433474 0.19955894 -0.024467824 0.034149844 -0.66985345 0.5340386 -0.25649893
0.39609224 -0.12756014 0.27618226 -0.22477576 -0.7618776 -0.97507983 -0.45886785 -0.138576
0.043092266 0.29305032 0.08002776 -0.3424478 0.60902065 0.36503166 0.36692452 -0.09446629
00000000: 2272 783d b9b1 88be 2fa8 19bf 50a3 5c3e
00000010: 6100 adbe c0e3 383e 4680 2cbf 0b4b c93e
00000020: de75 27bf 3340 323f 8abe 153d 1175 b73e
00000030: 34ed 67bd f0d7 3f3d d291 16bf 0bec cb3e
00000040: c8ce c43e 2c80 96bd e077 c03e e798 3c3e
00000050: bb8f a3be c591 92bd 45f1 be3d 8a38 81bd
00000060: d916 d4be ca82 b63e ac4a 953c 4906 893d
00000070: 7171 6b3e fd2f cebc 6daf 65bc 3baf 38bf
00000080: a0ae e63e 89a2 20be 47f9 95be 5f7c 7b3d
00000090: f44c 293f 3d97 31bd 367c 523e b497 9dbd
000000a0: edec 8abd af23 d4be 2e59 4c3e bf70 c8bc
000000b0: b5e0 0b3d 847b 2bbf c1b6 083f d453 83be
000000c0: 9acc ca3e 209f 02be c367 8d3e 9e2b 66be
000000d0: 690a 43bf d59e 79bf baf0 eabe dee6 0dbe
000000e0: 8481 303d b10a 963e 98e5 a33d 5155 afbe
000000f0: c7e8 1b3f 6ee5 ba3e 88dd bb3e 8b77 c1bd

fc3.weight f4 [4, 64]
-0.3631699 1.2058587 -0.46953392 2.4863021 1.3754467 -0.4033713 -1.4031566 1.7712339
-1.5547476 -0.5059813 0.03646719 2.247524 -0.46800804 0.23646629 -0.45443508 -0.59781575
1.561647 0.010945116 -0.70399237 0.3560468 1.4289184 -1.5855218 -1.0291305 -0.45633537
0.54854745 2.1309502 -0.47251752 2.452478 0.097096 -0.01513465 -0.23189451 0.0139291175
1.8916188 -0.055115063 3.2777517 0.02130267 -0.39709446 1.9989011 -0.75733465 -0.024153471
-0.39373174 -1.5779191 1.8022327 -0.33644304 -0.3448271 1.7373809 -0.9015093 -1.1449888
1.5940577 -0.4675387 1.282052 -0.5387881 2.3170352 1.1531645 -1.0079784 -0.5417991
0.10527511 2.3299963 -0.027880529 -1.2298346 -0.27862576 1.0756986 1.4351795 -0.023538873
-0.3761606 -1.3999544 -1.5507269 2.5512683 1.4317174 -0.57402974 -1.5224726 1.459554
-0.9144051 -0.70945376 -0.07001211 2.3527923 -0.66946995 -0.10758851 -0.8568993 -0.34914824
1.2128979 0.005428797 -0.1668376 0.22242725 1.5646313 -1.0440784 -0.7213228 -0.3510987
-1.0481548 2.3213534 -0.070087425 2.2725616 0.07747355 0.025669433 -0.598434 -1.8390418
2.1341267 0.12104453 3.280147 0.0702012 -0.092225015 1.9362503 -0.6361722 0.06668593
-0.36486733 -1.9401579 1.6076769 -0.43706393 -0.8843899 0.5965096 -0.036531452 0.21137851
1.4800683 -0.3909197 1.6055415 -0.17743471 2.5523374 1.7997596 -0.96717274 -0.08937579
-0.040605217 2.350152 -0.14515863 -1.1502582 -0.5977121 0.95579237 1.6375012 0.056617633
-0.44663778 0.24067302 -1.2920077 2.7406685 1.1580473 -0.59343183 -0.8534272 1.9303365
-0.80517536 -0.18944556 0.061682746 2.2555935 -0.8198612 -0.091433905 -1.1559932 -1.1738489
1.4636765 0.046982177 -0.5614121 1.3436055 1.6568257 0.530334 -1.835426 -0.14323252
-0.96186346 1.1221151 -0.12365219 2.458207 -0.8778841 0.09468257 -0.7271598 -1.5747674
1.8782414 -0.07046084 3.0737307 0.07687153 0.021187535 1.7020156 -1.0878304 0.095738634
-0.54096407 -3.3070018 1.5228243 -0.38761115 0.4538889 1.0411024 -0.7473689 0.06100773
1.4479321 -0.28187597 1.1676987 -0.42735618 1.8942655 0.82228166 -0.65416265 -0.5645489
-0.06885287 1.8911763 -0.8012755 -0.7966722 -0.70492846 0.61856484 1.9326746 0.01944445
-0.09289138 -2.4058084 -0.10506139 2.618669 1.0476835 -0.027046284 -2.1269858 1.6724987
-1.6458104 -0.40593073 -0.07620843 2.1784816 -0.85607725 -0.5033166 -1.2633203 -0.7552412
2.039474 0.069928266 -0.37093696 0.6225628 1.4021196 -0.779222 -0.9757323 -0.55727214
-0.91736317 1.6249806 -0.7007503 2.2950072 -0.62480474 -0.13157703 -0.35833243 -1.4394289
1.7505019 -0.078202724 3.0362833 -0.08851512 -0.703743 1.9552565 -1.8475944 -0.074516416
-0.05456611 0.5417575 1.613688 -0.15434268 0.115991816 0.65691024 -0.19298202 -1.0408823
1.7168338 -0.40457687 0.6911426 -0.466285 0.87162435 1.5780088 -1.2301888 -0.40332764
0.07581374 2.421911 -0.18202928 -0.86381227 -0.6363618 1.0958875 1.4331534 -0.021549033
00000000: 68f1 b9be 9459 9a3f c066 f0be 931f 1f40
00000010: a30e b03f af86 cebe a39a b3bf cbb7 e23f
00000020: f801 c7bf fe87 01bf 9f5e 153d 6fd7 0f40
00000030: c09e efbe 3824 723e b7ab e8be 740a 19bf
00000040: 0de4 c73f 2553 333c d838 34bf c44b b63e
00000050: cce6 b63f 61f2 cabf 8cba 83bf caa4 e9be
00000060: 9b6d 0c3f 7d61 0840 d1ed f1be 66f5 1c40
00000070: 45da c63d 53f7 77bc c175 6dbe f436 643c
00000080: 9120 f23f 55c0 61bd afc6 5140 f082 ae3c
00000090: f74f cbbe fedb ff3f afe0 41bf 80dd c5bc
000000a0: 3597 c9be 41f9 c9bf 90af e63f 4342 acbe
000000b0: 2d8d b0be 7f62 de3f 50c9 66bf fe8e 92bf
000000c0: 150a cc3f 3c61 efbe 481a a43f 04ee 09bf
000000d0: 4e4a 1440 e59a 933f 7005 81bf 59b3 0abf
000000e0: 7a9a d73d a91e 1540 b565 e4bc 386b 9dbf
000000f0: 09a8 8ebe 7eb0 893f f6b3 b73f 98d4 c0bc
00000100: 1f98 c0be b531 b3bf 387e c6bf fb47 2340
00000110: 8442 b73f 9df3 12bf 62e0 c2bf aad2 ba3f
00000120: 7416 6abf c39e 35bf 8262 8fbd 2694 1640
00000130: 6262 2bbf 5d57 dcbd c15d 5bbf 8fc3 b2be
00000140: 3d40 9b3f 0de4 b13b 7ad7 2abe f8c3 633e
00000150: d745 c83f 5ca4 85bf 9ca8 38bf 35c3 b3be
00000160: f029 86bf 0e91 1440 ff89 8fbd a671 1140
00000170: 74aa 9e3d b448 d23c f832 19bf b965 ebbf
00000180: 8895 0840 32e6 f73d eeed 5140 a6c5 8f3d
00000190: 78e0 bcbd 0dd7 f73f 2edc 22bf a292 883d
000001a0: e4cf babe 1857 f8bf 5bc8 cd3f d8c6 dfbe
000001b0: 6067 62bf dab4 183f 01a2 15bd 9c73 583e
000001c0: e172 bd3f a026 c8be 6282 cd3f 72b1 35be
000001d0: 7f59 2340 865e e63f a298 77bf a70a b7bd
000001e0: a851 26bd e468 1640 77a4 14be a93b 93bf
000001f0: a903 19bf cfae 743f a499 d13f e4e7 673d
00000200: b5ad e4be fd72 763e 8260 a5bf 1d67 2f40
00000210: e53a 943f 26eb 17bf 347a 5abf 4415 f73f
00000220: f91f 4ebf 04fe 41be 0ca7 7c3d a55b 1040
00000230: 6ce2 51bf b341 bbbd 96f7 93bf ae40 96bf
00000240: c059 bb3f 6270 403d b4b8 0fbf 44fb ab3f
00000250: dd12 d43f f8c3 073f 3def eabf 8cab 12be
00000260: af3c 76bf 78a1 8f3f 5c3d fdbd 4353 1d40
00000270: 03bd 60bf efe8 c13d 2527 3abf fa91 c9bf
00000280: 376a f03f c64d 90bd 01b8 4440 d26e 9d3d
00000290: 7b91 ad3c a6db d93f 073e 8bbf 9e12 c43d
000002a0: 9f7c 0abf eba5 53c0 e8eb c23f f874 c6be
000002b0: 2064 e83e d842 853f 9153 3fbf 3ee3 793d
000002c0: d755 b93f 0c52 90be 2777 953f 6ece dabe
000002d0: 4b77 f23f 0d81 523f 3477 27bf 4786 10bf
000002e0: bc02 8dbd 1112 f23f 6420 4dbf b6f2 4bbf
000002f0: 3176 34bf 445a 1e3f e261 f73f f849 9f3c
00000300: d63d bebd c4f8 19c0 6d2a d7bd 4698 2740
00000310: 7e1a 863f 2b90 ddbc 8920 08c0 7014 d63f
00000320: eaa9 d2bf 27d6 cfbe 2a13 9cbd 3e6c 0b40
00000330: e127 5bbf 5bd9 00bf 7bb4 a1bf 7d57 41bf
00000340: be86 0240 8d36 8f3d 73eb bdbe 4760 1f3f
00000350: a878 b33f 187b 47bf 98c9 79bf 63a9 0ebf
00000360: 50d8 6abf 5dff cf3f 5f64 33bf 66e1 1240
00000370: 34f3 1fbf 21bc 06be 5977 b7be 353f b8bf
00000380: 7210 e03f c028 a0bd 7752 4240 6a47 b5bd
00000390: 8028 34bf d845 fa3f f97d ecbf 109c 98bd
000003a0: b780 5fbd 9fb0 0a3f 548d ce3f 020c 1ebe
000003b0: 1e8d ed3d 452b 283f 149d 45be a23b 85bf
000003c0: 36c1 db3f b324 cfbe b9ee 303f e8bc eebe
000003d0: c622 5f3f 31fc c93f d476 9dbf f680 cebe
000003e0: 3c44 9b3d 9700 1b40 e265 3abe cd22 5dbf
000003f0: 9be8 22bf 0b46 8c3f 9271 b73f 9987 b0bc

fc3.bias f4 [4]
0.00044528005 -0.21631259 0.11107852 0.02271079
00000000: 7a74 e939 0c81 5dbe 237d e33d fb0b ba3c
