LunarLander-v2_results/LunarLander-v2_weights.pth (torch, 22303 bytes, 6 tensors)

fc1.weight f4 [64, 8]
00000000: 1374 febe e062 09bf 1b43 b4bf a09f 36bf
00000010: d333 79bf 91c9 5bbf 5c82 b33e 96f1 c83e
00000020: 1599 523f 3340 b73e d15a 6b3d eebe 5b3e
00000030: afd7 fdbe 9ea6 d9be 5eb8 973e 0e5f cc3e
00000040: 4665 73bf 43e2 8fbf 26e1 16be 921a af3e
00000050: 8db6 44be 477b ca3c f189 d83e 328b 233f
00000060: 9f53 563e dc8a 1240 83da aebe 9bdb e03f
00000070: 401c 043f aa4c 7e3e 9472 4d3f 0984 32be
00000080: 3486 063f d959 18be f77b 4dbf 1e74 99bf
00000090: 02b7 f43e 5d50 c53d dbf0 413f c219 e63e
000000a0: 7f58 00bf 59af e4be 778a 74bf 03e4 3cbe
000000b0: 9f05 893f 4003 52be a5c7 a7bf e6d8 41bd
000000c0: 3ac9 72bd d637 b5be 71dd 6abf 3a25 6a3f
000000d0: 0f93 983e 00db 673f 7322 bcbf bdc0 fd3e
000000e0: 57ca 1f3e 3f6e b03e 8a67 9bbf 3cd9 efbf
000000f0: 0f5a ab3d 2c94 b03e 1602 8d3e 0908 2c3e
00000100: 70c7 abbf 8269 e5bd 9b8a 48bf c68c d1be
00000110: 854e 12bf 057a d5be 4b61 2fbe cc2c 23be
00000120: 1d9e 473f 1f5e 27c0 6da8 75bf 03d5 0cbe
00000130: f5c7 8c3f c002 8d3f da6b 463e a709 3dbe
00000140: a33c 86bc 9168 49be e823 913f d797 7c3f
00000150: aacb 683f 70d0 2d3e 7185 b63d ddb8 0e3f
00000160: 4f0e db3d a82a 3fc0 b407 7a3e a81b cebe
00000170: 8890 e3bd ae87 f5bc 9c34 ef3d 2a60 d03d
00000180: d2b9 c43d cf58 96be 1b49 d53e c970 563f
00000190: 4be8 943f 0ad9 16bd 4111 c43d e9dd 3f3f
000001a0: 3af5 443e 4579 f1be 4594 ed3f 41d6 9cbf
000001b0: be36 1c3f 120c c63d b3fa db3d b628 dcbd
000001c0: 341d 663e c5b6 3bc0 b7c9 ab3e acc0 06bf
000001d0: 953d 373f 6360 293e 7e67 72bf e482 5cbf
000001e0: 9fe0 acbe 370c 7c3e f78f 72be bb9f 273e
000001f0: 33f7 a63e a468 db3f bb2d 07bf 47f0 acbf
00000200: 1fae c8ba 989c 50be ce04 3c3e 5ffa b0bf
00000210: bbbc 2abe 0ff4 19bd d89a cf3e d9a1 bdbe
00000220: 108a 26bf ada9 76bc 2b90 43bf 03c0 92bd
00000230: 0e8a c0bd 65f3 443e 71a3 133f 6ef1 b53e
00000240: b16f 993e 4cac a33e 54e9 a63d 0f92 8c3e
00000250: 6d8f 15bf 1789 97bf 0d11 3fbf 6724 853f
00000260: b5bd 453f e55e 34bf 6f30 bdbd 4479 80bf
00000270: 1c0d cf3f 855f c63e ccaf 24bf 4f18 d1bf
00000280: 337a d03e 6168 243f b425 843e 0ae5 cabd
00000290: 04fb 26bf 3334 7ebe 3762 f3bc fa02 a23e
000002a0: b1f5 d8bd 0d0b 27bf f93c b7be fd1e 28bf
000002b0: f5a3 833f 212d bd3f e6e2 02c0 c5a1 bfbf
000002c0: c17a cdbf 58c7 88bf 8e28 b1be 0232 2cbf
000002d0: 1b56 133f 2b79 6f3e 668b bcbd 9dfb 813d
000002e0: f053 1bbe 95ab 4a3f 8088 cebc 284d 09bf
000002f0: 732e 5c3e c167 fdbd 3cbb febe e87d 89bc
00000300: 7553 d0bc 62ec 81bd 273f 133e 3a7f ddbf
00000310: 3adc b4be e9d9 8ebe 6f14 8fbd 3316 123e
00000320: ccee f33e 3837 8abc a4d1 9fbe 462e 35be
00000330: 54cf dd3e efe8 283f 26d7 cabd b929 4c3f
00000340: 2f6d 2cbe 6b06 e1bc 9d08 ac3d 7e0b 773d
00000350: f24e 5ac0 14f6 3a3e 9980 a03d 9eb4 67be
00000360: d71c 8a3e c1c2 823f 1804 7e3f b505 a2bf
00000370: a3f3 6e3f 51f2 8dbf 894b 5c3d 4697 073e
00000380: 604b c7be 52e4 74bf 45e9 e2be e7fc 53bf
00000390: 31b7 ff3e f31f 15bd 01cd 3f3f d849 0a3e
000003a0: 179d eabc a051 cc3b 52cf 22c0 e12d 7ebf
000003b0: 21f1 bebe 2c69 1dbf 3691 37bd 4425 843d
000003c0: 88bc f93d b5c2 29bd e5c8 bb3d 2232 b63d
000003d0: 00a7 4cbf c928 613f e13e 7d3f f499 b03e
000003e0: 6d59 34be 1515 323f 3263 ae3d 41d8 2a3f
000003f0: 09d4 923d fc29 583e 7ba7 8e3f 1ad8 31bd
-0.49697933 -0.53666496 -1.4082979 -0.7133732 -0.973447 -0.8585444 0.35060394 0.39246815
0.82264835 0.35791168 0.057459656 0.21459553 -0.49578616 -0.4250993 0.29632849 0.3991627
-0.95076406 -1.1240925 -0.14734325 0.3419996 -0.19210263 0.024716986 0.4229274 0.6388427
0.20930336 2.2897253 -0.34151086 1.7567018 0.51605606 0.24833933 0.8025296 -0.1743318
0.5254853 -0.14878024 -0.8026728 -1.1988561 0.47795874 0.09634469 0.7575814 0.44941527
-0.50135034 -0.4466503 -0.9552378 -0.18446355 1.070484 -0.20509052 -1.3107802 -0.04732599
-0.059273936 -0.35394162 -0.9174414 0.91463053 0.29799697 0.9056854 -1.4698013 0.4956111
0.1560453 0.3445911 -1.2140973 -1.873817 0.08366787 0.34488046 0.27540654 0.1679994
-1.3420238 -0.11201765 -0.78336495 -0.40927714 -0.5715106 -0.41694656 -0.17126958 -0.15935057
0.77975637 -2.6151197 -0.9596012 -0.13753133 1.0998522 1.1016464 0.1937708 -0.18460713
-0.016386336 -0.19668795 1.1339083 0.9866919 0.90935767 0.16974044 0.08912171 0.5575083
0.106960885 -2.9869785 0.24417001 -0.40255475 -0.111115515 -0.029971924 0.11679956 0.10174592
0.09605755 -0.2936463 0.41657338 0.83765846 1.163339 -0.03682808 0.095736034 0.74947983
0.19234172 -0.47162834 1.8560873 -1.2252885 0.6102103 0.09670271 0.107411765 -0.107499525
0.22472078 -2.9330304 0.33552334 -0.52637744 0.7157834 0.16540675 -0.94689167 -0.86137223
-0.33765122 0.24614035 -0.2368773 0.16369526 0.32610473 1.7141309 -0.52804154 -1.3510827
-0.0015310681 -0.20372236 0.18361208 -1.3826407 -0.16673557 -0.037586268 0.40547824 -0.37037542
-0.65054417 -0.015055102 -0.7639186 -0.071655296 -0.09401332 0.19233473 0.57671267 0.3553576
0.29968026 0.3196739 0.081499726 0.27455184 -0.58421975 -1.1838712 -0.7463539 1.0401734
0.77242595 -0.704573 -0.092377536 -1.0037007 1.6175876 0.3874475 -0.64330745 -1.6335543
0.4071823 0.6422177 0.25810015 -0.09906967 -0.6522677 -0.248246 -0.029709918 0.31642896
-0.10593737 -0.6525124 -0.35788706 -0.65672284 1.0284411 1.4779397 -2.0450988 -1.4971243
-1.6053087 -1.0685835 -0.34601253 -0.67263806 0.5755326 0.23386066 -0.09206276 0.063468195
-0.15168738 0.79168063 -0.025211573 -0.53633356 0.21502094 -0.12373305 -0.49752223 -0.01678367
-0.02543042 -0.063439146 0.1437956 -1.7304451 -0.3532427 -0.27900627 -0.06986319 0.14266281
0.47643125 -0.016872033 -0.3121463 -0.17693433 0.4332224 0.6598043 -0.099043176 0.79751164
-0.16838525 -0.02746888 0.0840008 0.060313694 -3.4110684 0.18257934 0.07837028 -0.22627494
0.26975128 1.0215684 0.99224997 -1.2657992 0.9334051 -1.1089574 0.053782973 0.132413
-0.38924694 -0.9566089 -0.44318596 -0.82807773 0.4994445 -0.036407422 0.74922186 0.13504732
-0.02863936 0.0062353164 -2.5439038 -0.99288756 -0.37293342 -0.61488605 -0.04481622 0.0645242
0.121941626 -0.041445453 0.09169177 0.08896281 -0.7994232 0.8795286 0.9892407 0.34492457
-0.17612238 0.6956342 0.08515014 0.6673623 0.07169349 0.21109766 1.1144861 -0.04341898

fc1.bias f4 [64]
00000000: 60f1 27bf d041 923e 855e 9f3e c688 823e
00000010: 45ba b83d 7453 1dbf 35aa bbbe a92f 0f3e
00000020: 0459 74bd 6797 843e 5aad e3be d4be 493f
00000030: 9ac7 08bd 7aec 2d3e e5bf dc3e f91e e13e
00000040: 4a47 1d3e 5031 993c 6a03 c73d f5bf abbe
00000050: f828 e73e c095 a1bd aa72 c7bd 9dc4 163f
00000060: 2f15 afbe 9750 c43e 33bc 2b3d cb96 00be
00000070: d5d0 27be 2969 d13c 50a6 483e 21da 6c3e
00000080: ac6d 453e 8933 223e d3b4 1d3f faf5 c4be
00000090: 7665 dabe 7d89 0abf 5fb9 97bc 219c fbbb
000000a0: 563c 843e d139 16bd fd9a 5e3e 475d 36bf
000000b0: 1417 58be 5de9 3cbd 4e49 d43e 5892 6a3e
000000c0: 6b81 093f 94ec 853d bf39 babe ca74 b83e
000000d0: 606d a33e 42df 1bbe fced 043e 74a2 37bf
000000e0: 2acf ecbd d478 bcbd 2fea abbe b501 343e
000000f0: 97cd a8be 73b0 ecbd 6080 67be 0ac6 ab3e
-0.65602684 0.28565836 0.311268 0.25494975 0.09019903 -0.61455464 -0.36653295 0.13983025
-0.059655204 0.2589676 -0.44468194 0.78806806 -0.03339348 0.1698474 0.43115154 0.43968943
0.15359226 0.018700272 0.09717448 -0.3354489 0.45148444 -0.07889891 -0.09738667 0.5889376
-0.3419585 0.38342735 0.041927528 -0.12557523 -0.16388257 0.02556284 0.19594693 0.23130085
0.19280118 0.15839972 0.6160404 -0.38468915 -0.42655534 -0.5411604 -0.018521009 -0.007678524
0.25827283 -0.03667623 0.21738811 -0.7123608 -0.21102554 -0.04612099 0.41462177 0.22907388
0.537131 0.06539264 -0.36372182 0.36026603 0.31919384 -0.15221885 0.12981409 -0.7173226
-0.11562951 -0.09202734 -0.33577105 0.17578776 -0.32969353 -0.115570925 -0.22607565 0.3354953

fc2.weight f4 [64, 64]
00000000: 996b 1a3c 750c 1cbe 46ed ee3c 7f15 3ebc
00000010: c615 ecbd 4bb1 f93c ef3d 81bc dc03 9cbd
00000020: 57a5 8b3d 846d e8bd 1db3 8d3c ea86 4cbc
00000030: 595b 21bd 5fc1 08be 646e ee3d e046 073d
00000040: cf95 b7bd c1ef 58bd 6e56 183d 4c4d 0fbe
00000050: 2efe 37bc 3619 15be e65e bfbd 991e a4bd
00000060: 6dbc 19be 0572 92bd f6b4 133d addc 663c
00000070: f28d a0bd 0bea 9fbd c06a 223d 1591 03bd
00000080: dccf b7bd 5b7e c3bd 4a23 52bd 87b2 1a3c
00000090: 911c 22be 1cdd 2f3d 6148 07be 11cd f6bd
000000a0: 5b82 953d 8f67 08bc fd23 16bd 2d12 a0bc
000000b0: 9956 f0bd dcdc 2cbe d12c a7bd 0ee3 823d
000000c0: 3020 7e3d 8780 f5bd fc41 21be 062d c7bc
000000d0: 810d 343d 673b 1f3c 7b70 98bd 440b aabd
000000e0: 9897 03be 647e 05bd 8e43 cc3b 01c5 5e3d
000000f0: 8d69 ee3b 6a79 13be bc4a 8b3d 648e f0bd
00000100: 1885 523f dcbe e3bb 4c4d 20c0 2812 92be
00000110: ae20 f2be 530b 773f aa0a 81bf 982f 843e
00000120: 7f39 4b3f 3a7b a43d 1da9 4e3f 6af2 87be
00000130: c5a2 15c0 501d 203f ded9 9abe 9ce6 c5bf
00000140: 70aa 473e 09ad 91be fa35 673d 6e99 83bf
00000150: 4430 3a3e 5a48 1bc0 aa26 3c3f 7c2f a8bd
00000160: f0bd 913f d370 7ebc 44c8 61be 669b 243d
00000170: 11c6 3c3d 13f3 143f c657 42bd 5925 edbe
00000180: d69a e6bf 26c7 9abf 31b9 1c3e cd41 483f
00000190: 2877 763f 7595 8e3f d0f8 39be a5da c73d
000001a0: fc43 013f f54e d73f b56b a83e e6bc 983f
000001b0: 09aa a03e 8d90 7cbf 7081 2f3f 74dc f4be
000001c0: 9068 0d3e ff89 7cbe 834b 1e3e 11ea 61be
000001d0: f6a2 cfbd 69d9 0f3f 269d d2bf 8705 903f
000001e0: 0958 e53f db3b ccbe b548 183f 39f6 bbbf
000001f0: d79e 4c3f be72 bb3f 4a84 393f 8cc3 ef3e
00000200: e995 893e 9893 27be c0aa d33e adc4 3f3e
00000210: 6281 b33e d4af e9bf 62fd db3d b6f3 f33e
00000220: 894e e2be a105 fc3e 0b0b 2c3e b68f f13d
00000230: b314 87bf b463 b23f b46e 5a3f d3c4 90be
00000240: dc53 6a3f 0c0f 0e3d bf6d 20c0 8b08 bc3f
00000250: 70ef f73d 9405 713f a49d 75be f239 753e
00000260: 07ac ad3e 1be4 87be 09c3 e53f 3a94 5b3f
00000270: ad81 09bd 9a18 7d3e d2b2 58be 0f4f 83bc
00000280: e08f e0be c2da 473f ddf9 21be f00f d2bc
00000290: 2020 c2bf 5187 8abf 1b77 cbbe 6712 99be
000002a0: 3344 b5bd 040a 093f f83a 663f edcf 4bbf
000002b0: fd2d 77c0 c0fa c43e 8533 04bf d8cd b33e
000002c0: 3b5c a13e b15a 33be 2619 f6bf e0c1 663e
000002d0: bd2c 0ebd 6eb0 1ebe b885 e53e 07bc b33e
000002e0: 6f83 7abf ad74 3abf c3da bcbd 5de4 8d3e
000002f0: 91ab 01bf dacd eebe 4998 f33e 897c 2d3f
00000300: 0ca6 c13f f470 1f3e de6b 453f 2f03 503f
00000310: 198f 053c 0087 01c0 314d 05bf 8cb0 b13d
00000320: c4f6 85bd 4d17 20bf 2690 26bf 373e 98bf
00000330: b819 163f de8b 133f c9f9 aabf dbe2 c1be
00000340: af25 9b3d 3259 07bd 1fb3 9cbf 2706 01bf
00000350: f008 19be a1a5 11bf 6f70 a53f 6d97 bc3e
00000360: 6d16 953f 4af2 5cbe 78f7 c63f fd45 803f
00000370: 46a5 033f 8e5c 8a3e 6e95 61be 12ed 793e
00000380: c0fd 2ebf 7c19 1e3f 5eb2 28bf 872a a2bd
00000390: d243 183f 2296 edbf b94a 97bf 33a7 1bbf
000003a0: a97b 52bf ddda afbf 72e4 8e3e dce4 99bf
000003b0: ca80 a6c0 e123 ea3e 014a 0740 b046 20bf
000003c0: a17b 073d 0819 f83e d1c7 4dbe 48c2 79bf
000003d0: a027 35bf 396e b33d f7a2 2fbe 4b58 0840
000003e0: 804e cf3e 230e e13e c3b3 38c0 71e1 b63f
000003f0: 6a4e 793f 90dd 763f c0a9 87bf 38ff 83bf
0.009425067 -0.15239127 0.029165875 -0.011601805 -0.115275905 0.030480048 -0.015776603 -0.076179236
0.068186454 -0.113490134 0.017297322 -0.012483338 -0.039393757 -0.13355015 0.11642149 0.033026576
-0.089641206 -0.052963022 0.0371918 -0.1399433 -0.011230035 -0.14560398 -0.09344272 -0.080136485
-0.15013285 -0.07150654 0.03606125 0.014090699 -0.07839574 -0.07808312 0.039652586 -0.032120783
-0.08975193 -0.09545585 -0.051303186 0.009441978 -0.1583121 0.042935476 -0.13211204 -0.12050832
0.07300254 -0.008325472 -0.036655415 -0.019539917 -0.11735267 -0.16881126 -0.08162845 0.063909635
0.062042415 -0.11987405 -0.15747827 -0.024313461 0.04395819 0.0097187525 -0.07443329 -0.0830293
-0.12850797 -0.03259124 0.006233639 0.054387096 0.007275766 -0.14401785 0.06801364 -0.11745909
0.82234335 -0.0069502424 -2.5047178 -0.28529477 -0.47290558 0.96501654 -1.008138 0.2581756
0.7938461 0.08031316 0.80726796 -0.26552135 -2.3380597 0.6254473 -0.30244344 -1.5461001
0.1949861 -0.28452328 0.05644796 -1.0281198 0.18182474 -2.426291 0.73496497 -0.08212182
1.1386089 -0.015529829 -0.22049052 0.040187262 0.04608733 0.581834 -0.04744699 -0.46317557
-1.8016002 -1.2092025 0.1530502 0.78225404 0.9627557 1.1139361 -0.1816132 0.097585
0.5049436 1.6820971 0.32894674 1.1932647 0.31379727 -0.98658067 0.6855688 -0.47824442
0.13809419 -0.24662016 0.15458493 -0.22061945 -0.10138504 0.56191117 -1.6454208 1.1251687
1.7917491 -0.39889416 0.5948594 -1.4684516 0.7992987 1.4644392 0.7246748 0.46828878
0.26872185 -0.16364896 0.4134121 0.1872737 0.3505965 -1.8256783 0.10741688 0.47646874
-0.44200543 0.49223045 0.16801088 0.11794989 -1.0553192 1.3936677 0.8532517 -0.28275165
0.9153421 0.03468232 -2.5066984 1.4690107 0.12106216 0.94149137 -0.23985916 0.23947886
0.3392031 -0.26541218 1.7950145 0.8577305 -0.033570934 0.24716416 -0.21161965 -0.016028909
-0.43859768 0.7806817 -0.15817972 -0.025642365 -1.5166054 -1.0822545 -0.39739308 -0.29896852
-0.088508986 0.5353091 0.8993373 -0.79614145 -3.862182 0.38472557 -0.5164111 0.35117984
0.3151568 -0.17515065 -1.9226425 0.22534895 -0.034710634 -0.1549699 0.44828582 0.3510439
-0.978568 -0.72834283 -0.09221413 0.2771329 -0.50652415 -0.46641427 0.47577122 0.6776815
1.5128798 0.15570432 0.7711772 0.8125486 0.008151793 -2.0238647 -0.5207091 0.08676252
-0.065412074 -0.62535554 -0.65063703 -1.1893986 0.58632994 0.57635295 -1.3357478 -0.3786839
0.07575547 -0.033044048 -1.2242163 -0.5040001 -0.14944816 -0.56893355 1.2924937 0.3683428
1.1647469 -0.21576801 1.5544271 1.0021359 0.5142406 0.2702374 -0.22029659 0.24406841
-0.6835594 0.61757636 -0.65897167 -0.07918268 0.59478486 -1.8561442 -1.1819679 -0.60802
-0.8221994 -1.3738667 0.27908665 -1.2022967 -5.2032213 0.45730498 2.1138918 -0.6260786
0.033076886 0.48456597 -0.20095755 -0.97562075 -0.7076359 0.08761258 -0.1715201 2.130389
0.40489578 0.43956098 -2.8859718 1.4287549 0.97385275 0.9643183 -1.0598679 -1.0312262

fc2.bias f4 [64]
00000000: 4bac 00bd 951e f9be 2dde debd 740a cabd
00000010: b426 bf3e f6ac 20be c83a 9fbf ee9e a6bd
00000020: 8483 a9be 60be 253c 6a30 bc39 309b 6ebd
00000030: 783d 3d3e bc77 223e 7257 843d 5dc1 673d
00000040: ad60 ce3e 0d9d ccbb 8283 083c e4de f5be
00000050: e9e3 28bd 4696 a13e a458 9c3d 8b27 693f
00000060: 87db 94bf ad63 0bbd 2f42 22be b12c a53e
00000070: f037 af3d dcd1 19be 2c0e 02be 13f3 f5bd
00000080: b5c0 8dbd a416 02bd e761 943f 2a10 5f3e
00000090: 66b8 62bd e0d7 5e3d 7bcb 3d3d f579 14be
000000a0: 3c48 90bf ed68 58be bb80 bd3d 51f9 813e
000000b0: 378e 853e 3886 30be 9764 e1bc b82c bfbd
000000c0: 9d38 aabd 881f 10be 30d1 8cbf dd10 653f
000000d0: 0925 843d 9db1 8cbd 0595 313e d1bd 50bd
000000e0: 82e5 bb3e f170 6a3d 589b 98bc 04c3 3ebf
000000f0: 6ced c13e 6db9 42bc 9483 bd3c 2f55 ecbc
-0.03141431 -0.48656145 -0.108822204 -0.09865275 0.37334216 -0.1569098 -1.2439814 -0.08135782
-0.3310815 0.01011619 0.00035894226 -0.058253467 0.1848048 0.15865988 0.06461991 0.05658089
0.40308133 -0.006244308 0.008332135 -0.48021615 -0.041232977 0.31559962 0.07634094 0.9107596
-1.1629494 -0.034030605 -0.1584556 0.3226066 0.08555591 -0.15021461 -0.12700719 -0.12009253
-0.069215216 -0.031759873 1.1592377 0.2178351 -0.055351637 0.054405093 0.046336632 -0.14499648
-1.1272044 -0.21133776 0.09253069 0.25385526 0.26085064 -0.172387 -0.027513785 -0.09334701
-0.083115794 -0.14074528 -1.1001339 0.89478856 0.064523764 -0.068698145 0.17342003 -0.050962273
0.36698538 0.057236616 -0.018628761 -0.7451632 0.3787645 -0.011885029 0.02313403 -0.028849212

fc3.weight f4 [4, 64]
00000000: 3e9c 39bd fa5d 95bf 5e1a 983f 0e1d f13f
00000010: 05c9 933f 266a d53e db60 80bf 91e1 8b3d
00000020: 1833 bcbe a473 b8be 502f 1fbd 2a12 b03f
00000030: a4a3 19bf 049f 07bf a879 f8be 6b61 1440
00000040: 5920 b4bf 287d bbbe 3141 97be 02f6 10bf
00000050: 7b65 c4be 4488 f73f 33df acbe 6ca5 b73f
00000060: 5a4c 51bf 0d4f a6be b312 cd3c fdd8 12bf
00000070: 6ea7 a3be b128 063e 7b10 e2be 82ea ac3d
00000080: 92d9 4ebd 9ef2 b9bd 77e5 4dbf 41e2 27bf
00000090: c8c6 87be b780 02bf d36b eebe a900 c43d
000000a0: 8178 b4bf 45ad a3be de22 dcbe a3e8 1d40
000000b0: a991 ff3f 82d5 04bd 5008 4cbd 9819 713d
000000c0: bf26 4b3d c727 cb3d 0ab9 eebf 052c da3f
000000d0: 9eca 913f 6c88 6dbe a4a3 1abf 0ced bbbe
000000e0: 060a 2540 edf4 f7be bbc1 c5be 2819 3bbf
000000f0: 8236 f73f 3ef2 62bd 4f81 6abd e57a ca3f
00000100: 2d6a cb3d 1eb0 a2bf 1255 bd3f ac3d e83f
00000110: 476d 023f 0bd9 6a3f 2393 eabf 4423 ca3d
00000120: 15f7 c5be f288 c0be 72e0 f33c 9e9d b43f
00000130: 3472 fbbe 7920 0dbf 5425 02bf a16c 1040
00000140: 1214 10bf 82e4 e8be 8eec a9be 47db 21bf
00000150: 3036 fcbe 3a98 783f 45fe c6be 8453 dc3f
00000160: 8b4e d5bf 10ad e0be 16c4 0cbe 2501 7ebf
00000170: 6a5f bcbe a3e1 b53f dd81 f8be ac9b 24bd
00000180: 8337 28bd 200d fe3d da98 a4be a4d2 48bf
00000190: 36b1 54be 95b5 00bf 355a cdbe 6c3c 82bb
000001a0: 144d edbf 4477 15be 4800 6abe 4f97 2c40
000001b0: 2753 b33f 8c0d 8e3d 5643 4ebd c204 88bd
000001c0: 7f6d 02bd 1e4f 983d 871e c9bf c528 e73f
000001d0: b322 ae3f 4069 0dbe 6d57 88be df94 d0be
000001e0: ea25 2b40 128a 09bf 7cca 2ebe 6f75 023f
000001f0: 27ce ff3f c0d9 0d3c 4491 9dbd aa94 aa3f
00000200: a0b4 f6bd 99bf c8bf 9c05 7f3f e0ca 1140
00000210: 1060 b13f 64d4 913f bd74 10c0 3e68 99bb
00000220: b88a 59be d57f 14be 1ae4 693d acd1 953e
00000230: c1c0 3bbe cf83 c7be d3be 5bbe ae1f 0b40
00000240: ae02 ebbe 681b 09be 9e15 c8be fb1e 21bf
00000250: df20 71be 778f f93f 362b 1dbd e8ed dc3f
00000260: e57e ddbf 8fb0 84be ff1a 57bc c444 09bf
00000270: a35a b8be 1300 5dbf 9cdd 3ebf f85b f93b
00000280: 591e 00bd 3688 f43c d72d 2cbf 66bf fdbf
00000290: 6d30 dabe cf61 b5be 9449 5cbe 1d42 023d
000002a0: a234 72bf a30a 24bf 4121 f4be e291 2140
000002b0: 8fc5 eb3f a272 45bb d6ae a6ba 4cf4 83ba
000002c0: bff0 3abb 76bf 443d 330e e3bf 56b1 ac3f
000002d0: 778c cd3f 2d6b 15bf b228 b4be 2079 7cbf
000002e0: f2a7 1440 986f fdbe e30d 44bf 2f4e 86bf
000002f0: 01e7 f23f 20e6 d93a 60d2 a43d 7789 f03f
00000300: 49b0 533d 34fe b3bf 58a0 943f 92de 0840
00000310: f483 cd3f cd31 b63d ca22 adbf c4db 163d
00000320: 79a5 26bf 113f 1fbf 4a4e 003d 4cb0 ac3f
00000330: 0b0e d5be 6b14 f4be 98b8 b5be ff94 f13f
00000340: dc0d f7bf ac46 d1be 29a6 03bf e740 c9be
00000350: fe1c c9be dc70 2540 9285 2dbf 8314 d43f
00000360: 3f51 9b3d 4c85 fbbe 0e25 603d 1c25 253e
00000370: 1210 debe 8321 83bf b375 87be 26d6 8abd
00000380: fbc3 4c3d 3304 b5bd 31de 58bf 332e 83bf
00000390: f988 edbe ff05 97be 30b8 10bf 28b5 31bd
000003a0: dbd0 26bf 424c 96be 5149 e4be 1f03 1440
000003b0: 49ca 0e40 c6a8 963c 9938 853d 6e0f 97bd
000003c0: ebfc da3d 15b5 59bc b3bc 10c0 e26c a03f
000003d0: f8ac ef3f ab9c 87be 6d53 adbe 0bdd 9dbe
000003e0: 63a1 1140 3e3e 99be 5d93 e6be 98ab 63bf
000003f0: a0db f13f 1bda b43d fd54 babc 6255 c33f
-0.04531502 -1.1669304 1.1883047 1.8836992 1.1545721 0.41682547 -1.0029558 0.06830133
-0.3675773 -0.36025727 -0.03886348 1.3755543 -0.6001532 -0.52977014 -0.48530316 2.318446
-1.4072372 -0.36618924 -0.29541925 -0.5662538 -0.38358673 1.933846 -0.33764037 1.4347358
-0.8175713 -0.32482186 0.02503333 -0.5736235 -0.31963676 0.1310146 -0.441532 0.08443166
-0.05050046 -0.09079479 -0.8042826 -0.6557961 -0.26518846 -0.50977653 -0.46566638 0.095704384
-1.4099275 -0.31968132 -0.42995352 2.467324 1.9966327 -0.03243018 -0.049812615 0.0588623
0.049597498 0.09919696 -1.865022 1.7044684 1.1389959 -0.23196572 -0.60405946 -0.3670429
2.5787368 -0.4842905 -0.38624367 -0.7308526 1.931351 -0.0554068 -0.057252225 1.5818754
0.09932361 -1.2709997 1.4791586 1.8143821 0.50947994 0.9173743 -1.8326153 0.09870008
-0.3866507 -0.3760448 0.02977011 1.4110601 -0.49110568 -0.55127674 -0.5083821 2.2566302
-0.56280625 -0.45486838 -0.3318829 -0.63225216 -0.49260092 0.9710728 -0.38865867 1.7212987
-1.6664594 -0.43882036 -0.13746676 -0.99220496 -0.36791545 1.4209484 -0.48536578 -0.040187523
-0.041068565 0.12404847 -0.32147866 -0.7844641 -0.20770726 -0.5027707 -0.40107885 -0.003974488
-1.8539147 -0.14596277 -0.2285167 2.6967351 1.4009751 0.069361776 -0.050357185 -0.066415325
-0.031842705 0.074369654 -1.5712441 1.8059317 1.3604339 -0.13809681 -0.266292 -0.4073858
2.674189 -0.53726304 -0.17069429 0.5096044 1.9984788 0.008657873 -0.07693723 1.3326619
-0.1204617 -1.5683471 0.99617934 2.2780075 1.3857441 1.1392941 -2.2571251 -0.004681616
-0.21244323 -0.14501889 0.0571023 0.2926153 -0.18335249 -0.3896775 -0.21459512 2.1738086
-0.45900482 -0.13389361 -0.39078993 -0.629379 -0.23547696 1.9496907 -0.038371287 1.7260103
-1.730435 -0.25915954 -0.013128995 -0.53620553 -0.3600665 -0.8632824 -0.745569 0.0076098405
-0.03127894 0.029850107 -0.67257446 -1.9824035 -0.4261507 -0.35426185 -0.21512443 0.03180133
-0.9461156 -0.6407873 -0.4768162 2.524529 1.8419665 -0.003012814 -0.00127169 -0.0010067313
-0.0028524844 0.048034154 -1.7738708 1.3491619 1.6058491 -0.5836666 -0.35187298 -0.9862232
2.3227506 -0.49499202 -0.7658369 -1.049261 1.8976747 0.0016624369 0.08047938 1.8791951
0.05168179 -1.4061952 1.1611433 2.1385846 1.6055894 0.088962175 -1.3526242 0.03683068
-0.6509624 -0.62205607 0.031324662 1.3491302 -0.41612276 -0.47671828 -0.35492396 1.8873595
-1.9301105 -0.4087423 -0.51425415 -0.3930733 -0.39279932 2.5850134 -0.6778194 1.656876
0.07583856 -0.49125135 0.054722838 0.16127437 -0.43371636 -1.0244602 -0.26456985 -0.06779127
0.04999159 -0.088386916 -0.8471404 -1.0248474 -0.46393564 -0.29496762 -0.5653105 -0.043385655
-0.6516244 -0.29355055 -0.44587186 2.3126905 2.2310965 0.018391024 0.06504936 -0.0737599
0.106927715 -0.013287802 -2.2615173 1.2533228 1.8724661 -0.26486716 -0.3385271 -0.30832705
2.2754753 -0.299303 -0.45034304 -0.88933706 1.8895149 0.08830663 -0.022745604 1.5260432

fc3.bias f4 [4]
00000000: 200a 743d 9dbd 213e 069c 203f d311 a8be
0.05957997 0.15794988 0.6273807 -0.328261
